model/runs/gridworld8.pt (torch, 23142 bytes, 6 tensors)

fc1.weight f4 [64, 10]
0	0x3df1f504	0.11814311
1	0x3e00d9f0	0.12583137
2	0xbd48104e	-0.048843674
3	0xbd3fa06d	-0.046783853
4	0xbc912f54	-0.017722763
5	0xbe06b468	-0.13154757
6	0xbf25265b	-0.6451165
7	0xbf39d718	-0.7259383
8	0x3c821aa2	0.01588184
9	0x3f4ae3ab	0.79253644
10	0xbf9ccfe9	-1.2250949
11	0xbdfbdf48	-0.12298447
12	0xbe8e7f0d	-0.27831307
13	0xbe9aaae9	-0.3020852
14	0xbe1afaba	-0.15134707
15	0xbc608501	-0.013703586
16	0xbe9f7326	-0.3114254
17	0xbe9f2201	-0.3108063
18	0xbcd249fe	-0.025670048
19	0x3e9b22ea	0.30300075
20	0x3d2d9156	0.04237493
21	0x3d21231e	0.03934013
22	0x3d5ae827	0.053444054
23	0x3d417525	0.04723086
24	0xbf631ba8	-0.88714075
25	0xbf648460	-0.8926449
26	0xbe2aed8b	-0.16692178
27	0xbd1bd70d	-0.038046885
28	0xbf53104a	-0.8244673
29	0x3b5fa6cb	0.0034126516
30	0x3ddc333c	0.1075196
31	0x3dea5091	0.11441148
32	0xbe4ffb5c	-0.2031073
33	0x3d0fb365	0.035083193
34	0xbb22ef05	-0.0024861705
35	0xbd11e75a	-0.035621025
36	0xbda82e2b	-0.08211931
37	0x3dae0880	0.08497715
38	0xbdd728d4	-0.10505834
39	0x3c1c40b3	0.00953691
40	0x3e46d9c9	0.19419016
41	0x3e464b8e	0.1936476
42	0xc0514760	-3.2699814
43	0x3e1902d1	0.1494248
44	0xbc89b5fb	-0.016810408
45	0x3c0e127e	0.008671401
46	0xbceaaa8f	-0.028645782
47	0xbcba17a5	-0.022716353
48	0xbc95ea5d	-0.01830023
49	0x3b957979	0.0045616
50	0x3e0137b3	0.12618904
51	0x3debcb27	0.115133576
52	0x3f172a0f	0.5904855
53	0xc03eea67	-2.9830568
54	0xbcdc8e3e	-0.026923295
55	0xbd8262ab	-0.06366476
56	0x3b14da10	0.0022712983
57	0x3d1eea38	0.038797587
58	0x3ccf2bd6	0.025289457
59	0xbcc28a72	-0.023747656
60	0xbc77860f	-0.015107646
61	0xbcec9cf2	-0.028883431
62	0x3e2b0a39	0.16703118
63	0xbff69be3	-1.9266323
64	0x3d34d097	0.04414424
65	0xbe372058	-0.17883432
66	0xbdc1b95f	-0.09459185
67	0xbe8cc9ca	-0.27497703
68	0x3d3ec86a	0.04657785
69	0x3d3cea94	0.04612215
70	0x3d0488c9	0.03235701
71	0xbe7e521d	-0.24836011
72	0xbe1ea352	-0.1549199
73	0xbeaa9a45	-0.33320823
74	0x3d95879c	0.07301256
75	0xbd05c176	-0.0326552
76	0xbddac830	-0.10682714
77	0x3d971bad	0.073783256
78	0x3d8de5eb	0.06928619
79	0x3da61eca	0.08111341
80	0xc05031a7	-3.2530305
81	0x3ec105bc	0.37699687
82	0xbb99670d	-0.004681474
83	0x3b16b765	0.0022997495
84	0x3e4ee76c	0.20205468
85	0x3b365053	0.0027818873
86	0x3d2896ed	0.04115956
87	0x3cafb135	0.021446804
88	0x3b31bd70	0.002712097
89	0x3ddc0d9b	0.107447825
90	0xbe661188	-0.22467625
91	0x3e13f0ae	0.14447281
92	0xbdb25d8d	-0.0870925
93	0xbe21dc86	-0.1580678
94	0xbd6e08e0	-0.058113933
95	0x3b9b622c	0.0047419276
96	0xbbedbfb0	-0.007255517
97	0x3c88c119	0.016693639
98	0x3cddefb6	0.027091842
99	0xbe4a5689	-0.19759573
100	0xbd6c5671	-0.057699624
101	0x3d37625b	0.044771533
102	0x3d611d65	0.054959673
103	0x3c497d7f	0.012297987
104	0xbc6e0afc	-0.014528986
105	0xbd89025f	-0.066899054
106	0x3e47dafe	0.19517133
107	0x3d37cb3b	0.04487155
108	0x3e266e2a	0.16252962
109	0xbd248275	-0.040163476
110	0x3d82e653	0.06391587
111	0x3d6d797f	0.057977196
112	0xbfb6b5a0	-1.4274178
113	0x3ce753b6	0.028238159
114	0xbe05e649	-0.13076128
115	0xbdf0775c	-0.11741516
116	0xbed6d7ca	-0.4196151
117	0x3e18076d	0.14846583
118	0xbf39b744	-0.72545266
119	0xbcabb544	-0.020960458
120	0xbe518f19	-0.20464744
121	0x3cc59f53	0.024123823
122	0x3e47ee82	0.19524577
123	0xbfe0e6e9	-1.7570468
124	0x3c47bb00	0.01219058
125	0x3d4e3393	0.050342154
126	0xbdc1776f	-0.09446608
127	0x3db1c438	0.08680004
128	0x3e22bafb	0.1589164
129	0xbc84fe20	-0.016234457
130	0xbe230d67	-0.15923081
131	0x3ca8bad0	0.020596892
132	0xbdd218b6	-0.102586195
133	0xbd429508	-0.04750541
134	0x3da83104	0.08212474
135	0xbd4ae2a8	-0.049532562
136	0xbdd0c2c0	-0.101933956
137	0x3d24d800	0.040245056
138	0xbcc7da70	-0.024396151
139	0x3e7e127e	0.24811742
140	0xbe06c9ab	-0.13162868
141	0xbe07280c	-0.1319887
142	0x3da066b1	0.07832087
143	0x3da5e52a	0.0810035
144	0x3da3e07a	0.080018
145	0x3de16968	0.11006433
146	0xbdb1ff26	-0.08691244
147	0xc00c53fd	-2.1926262
148	0x3dac667e	0.08417986
149	0x3d6b43ac	0.057437584
150	0xbd48c205	-0.049013156
151	0xbd6c840f	-0.05774313
152	0x3f0f69fc	0.56021094
153	0xc023c07a	-2.5586228
154	0x3d97ceee	0.074125156
155	0x3d3f2dd6	0.046674572
156	0xbc07f12f	-0.008297249
157	0x3d354df8	0.04426381
158	0xbdc7ffe5	-0.09765605
159	0x3c9e52f4	0.019326665
160	0xbc1c0880	-0.009523511
161	0x3e1f5de5	0.15563162
162	0xbcb33c9a	-0.021879483
163	0xbcf2aa97	-0.02962236
164	0xbce4934e	-0.027902272
165	0xbe7acd7a	-0.24492446
166	0x3e21eba4	0.15812546
167	0xbd07fc74	-0.033199742
168	0x3d703ee2	0.05865372
169	0xbe1349d6	-0.14383635
170	0x3f015945	0.5052684
171	0xc0849119	-4.142712
172	0x3e80bb1c	0.25142753
173	0x3e828b76	0.25497025
174	0xbd0584a9	-0.032597218
175	0xbdf2f229	-0.11862595
176	0x3b6cb211	0.0036116878
177	0xbbf75aca	-0.0075486647
178	0xbcb12e59	-0.021628546
179	0xbd2291b9	-0.039689753
180	0x3e04d769	0.12972797
181	0x3e06f5d1	0.13179709
182	0xbddad22d	-0.10684619
183	0xbddfa7f4	-0.109207064
184	0xbe641e14	-0.22277099
185	0xbe88805e	-0.26660436
186	0xbd0095a5	-0.031392712
187	0xbe2679bb	-0.16257374
188	0xbf57c2d6	-0.8428167
189	0x3aaacaf5	0.0013030457
190	0x3e82b6cb	0.25530085
191	0x3e858ebc	0.2608546
192	0xbcd6a6e8	-0.026202634
193	0xbc82f129	-0.015984135
194	0x3e185113	0.14874677
195	0xbd890cb2	-0.066918746
196	0x3e054441	0.13014318
197	0xbe9ca82e	-0.3059706
198	0xbe8ff6a7	-0.28117868
199	0xbe6d5278	-0.2317599
200	0xc00c954b	-2.1966121
201	0x3c5c201e	0.013435392
202	0xbe890355	-0.26760355
203	0xbe8f86f8	-0.2803266
204	0xbc87fa40	-0.01659882
205	0xbc243f1c	-0.010024812
206	0xbe562a82	-0.20914653
207	0xbd4741d8	-0.048646778
208	0xbe86012e	-0.26172775
209	0xbd3973a5	-0.045276303
210	0x3dbcb6aa	0.09214528
211	0x3db27cad	0.08715186
212	0x3dbe23c2	0.09284164
213	0x3dc23ed2	0.09484638
214	0x3e45fe61	0.19335319
215	0xbf15b83c	-0.58484244
216	0xbe873d18	-0.26413798
217	0xbdf66889	-0.12031657
218	0xbe28727c	-0.16449922
219	0x3e3c382b	0.18380801
220	0xbde8150c	-0.113321394
221	0xbde4cc5a	-0.111717895
222	0x3b7656ab	0.003758828
223	0x3bd3dead	0.006465754
224	0xbeeade9b	-0.4587296
225	0xbecd6e71	-0.40123323
226	0xbca7332e	-0.020410147
227	0x3d07e49b	0.033177
228	0x3ae47f85	0.0017433023
229	0xbf9ade87	-1.209916
230	0xbe8dc0d7	-0.27686188
231	0xbce9eff1	-0.028556796
232	0xbe20136c	-0.15632409
233	0xbe1c8a1b	-0.15287058
234	0xbe9d029f	-0.30666062
235	0x3e219942	0.1578112
236	0xbd5098fd	-0.05092715
237	0xbdef9d32	-0.116999045
238	0xbc4f1992	-0.012640374
239	0xbe601e2f	-0.21886514
240	0xbdff5b56	-0.12468593
241	0xbe777b1e	-0.24168059
242	0x3dbe5c50	0.09294951
243	0xbe2c4639	-0.16823663
244	0xbcce5d30	-0.02519092
245	0x3e5064f2	0.20351008
246	0xbe991a93	-0.29903087
247	0xbe0196da	-0.12655202
248	0x3dfda5e4	0.12385157
249	0xbcdec130	-0.027191728
250	0xbdc27dd4	-0.09496656
251	0xbe09273c	-0.13393873
252	0xbddda602	-0.10822679
253	0xbdd4bff2	-0.10388173
254	0x3d9faa78	0.07796186
255	0xbe01dc9c	-0.12681812

fc1.bias f4 [64]
0	0x3b98ba36	0.00466087
1	0x3d689950	0.056786835
2	0x3c9e6f74	0.019340254
3	0xbe1653b4	-0.14680368
4	0x3deeffc3	0.116698764
5	0xbe6b63e6	-0.22987327
6	0xbe4b76ba	-0.1986951
7	0x3df62576	0.12018864
8	0x3d08d076	0.03340193
9	0xbd80dcdb	-0.06292125
10	0x3dd6f511	0.104959615
11	0x3d4ebae7	0.050471213
12	0xbe81f333	-0.2538086
13	0xbe72f0fd	-0.23724742
14	0x3ea39949	0.31952885
15	0xbe1f979a	-0.15585175
16	0xbe966952	-0.29377228
17	0xbe0b4205	-0.13599403
18	0xbe0f679c	-0.14004368
19	0xbe9a6e11	-0.301621
20	0xbc1fb111	-0.009746806
21	0xbe26c782	-0.16287044
22	0x3e8ae3d1	0.27126935
23	0x3e31acc9	0.17351069
24	0xbd781188	-0.060563594
25	0xbeac7405	-0.33682266
26	0xbe811dd3	-0.25218067
27	0xbe8deb42	-0.2771855
28	0x3b24032f	0.0025026312
29	0xbe836184	-0.25660336
30	0x3cabd4de	0.020975526
31	0x3d0de35b	0.03464065
32	0xbd6119de	-0.05495631
33	0xbe5824c3	-0.21107773
34	0x3d267a28	0.04064384
35	0x3d8568d2	0.065141335
36	0xbdfcc688	-0.12342554
37	0xbc9f4d64	-0.019446082
38	0x3e92691c	0.28595817
39	0xbd67ce10	-0.056593
40	0xbe2c7ef5	-0.16845305
41	0x3c1431a5	0.009045039
42	0x3e2b5040	0.16729832
43	0xbd5461b1	-0.05185098
44	0xbc8078cf	-0.015682606
45	0xbe3bdc03	-0.18345647
46	0xbdb5de36	-0.08880274
47	0x3e86b2d7	0.2630832
48	0xbc022ef7	-0.007945768
49	0x3d3968f2	0.0452661
50	0x3d602a3c	0.054727778
51	0xbe7ecdb2	-0.24883154
52	0x3babd52e	0.005243919
53	0xbde68ff4	-0.11257926
54	0x3db6050c	0.08887681
55	0xbd8da670	-0.06916511
56	0x3dfebf2a	0.124388054
57	0xbea2f08e	-0.31824154
58	0xbe73266b	-0.23745124
59	0x3da6b845	0.081406154
60	0x3dfec566	0.124399945
61	0xbdb68c98	-0.08913535
62	0xbe5d87e3	-0.21633868
63	0xbdaba13e	-0.08380364

fc2.weight f4 [64, 64]
0	0x3db8c978	0.09022802
1	0x3dc5589a	0.0963604
2	0xbd9bfccd	-0.07616577
3	0xbdba9f5c	-0.09112427
4	0xbc87d484	-0.016580828
5	0x3c7dcdde	0.015490977
6	0x3db433a6	0.08798914
7	0xbca8bce9	-0.020597892
8	0xbe0adc62	-0.13560632
9	0xb95d4da1	-0.00021105121
10	0xbd3c399c	-0.045953378
11	0xbdebab80	-0.115073204
12	0xbc3df3d1	-0.011593775
13	0xbda6b07a	-0.08139129
14	0xbe83d9fd	-0.2575225
15	0x3daa6882	0.083207145
16	0x3e86fcc0	0.26364708
17	0x3b9c1dc2	0.0047642896
18	0xbd71f091	-0.059067313
19	0x3ec02edd	0.37535754
20	0xbe3bf70c	-0.1835596
21	0xbda5a478	-0.080880105
22	0x3f66aa83	0.9010393
23	0x3e250be9	0.16117825
24	0x3d22fc30	0.039791286
25	0xbc831fe0	-0.01600641
26	0x3c818bb8	0.015813693
27	0xbe3071c9	-0.17230906
28	0x3d3bd164	0.045853987
29	0x3e08e931	0.13370205
30	0x3d56c4f6	0.05243393
31	0xbd99087e	-0.07472323
32	0xbc983a3f	-0.018582461
33	0xbe130085	-0.14355667
34	0xbdfdd27e	-0.12393664
35	0x3d9e612b	0.07733377
36	0x3cf564dc	0.02995532
37	0xbe44d9e8	-0.1922375
38	0xbd85a7c2	-0.06526138
39	0xbd727ecc	-0.059202954
40	0x3cebee6a	0.028800208
41	0x3ddea43c	0.10871169
42	0x3d7df692	0.062002726
43	0xbc4332f2	-0.011914002
44	0xbcc5674a	-0.024097104
45	0x3dc9bb52	0.09850182
46	0x3cdadd49	0.026716845
47	0xbe1926d2	-0.14956215
48	0x3e191655	0.14949925
49	0xbe4514cd	-0.19246216
50	0xbe069f18	-0.13146627
51	0xbd9e0c3a	-0.07717176
52	0xbe2fef77	-0.17181192
53	0x3c70906b	0.014682869
54	0xbdb54b0b	-0.08852204
55	0x3d447465	0.047962565
56	0xbd019624	-0.031637326
57	0x3d9e7f14	0.07739082
58	0x3dc468e9	0.095903225
59	0xbd3a76b7	-0.04552337
60	0xbe91528a	-0.28383285
61	0xbd0fc24e	-0.035097413
62	0xbdeee5e6	-0.116649434
63	0x3d4eba18	0.05047044
64	0x3cddf20c	0.027092956
65	0xbc93b049	-0.018028395
66	0xbe1268c0	-0.14297771
67	0xbe0e196b	-0.13876884
68	0xbc1c4750	-0.009538487
69	0xbd0f9683	-0.03505565
70	0x3d12b15f	0.035813686
71	0xbd12b385	-0.035815734
72	0x3d3ce788	0.046119243
73	0xbd78c927	-0.06073871
74	0x3cbe6581	0.02324176
75	0xbc9b4c3f	-0.018957255
76	0xbd04e78e	-0.03244739
77	0x3dea64ea	0.11445029
78	0xbe1d565c	-0.15364975
79	0x3d82e161	0.06390644
80	0xbd3be134	-0.045869067
81	0xbbe1faa0	-0.006896332
82	0xbd8d95cb	-0.06913336
83	0xbcd2f710	-0.025752574
84	0x3d9dd4fc	0.07706639
85	0x3d84c1c1	0.06482268
86	0xbd187ac8	-0.03722647
87	0xbda070a6	-0.07833986
88	0xbd900fd4	-0.07034269
89	0xbd35e380	-0.044406414
90	0xbc831698	-0.016001984
91	0xbde924f2	-0.11384
92	0xbd811032	-0.06301917
93	0x3d88b012	0.06674208
94	0x3d2904f8	0.041264504
95	0x3da31742	0.079634205
96	0xbd8304af	-0.06397378
97	0xbdc4f978	-0.09617895
98	0x3dbc3259	0.091892906
99	0x3b88e3d1	0.0041775485
100	0x3d4d1a74	0.050074056
101	0x3d4b8674	0.04968877
102	0x3d54cd61	0.051953677
103	0x3d185b34	0.037196353
104	0xbda66304	-0.081243545
105	0x3c84aac6	0.016194712
106	0x3d989fa2	0.074523225
107	0xbd9ebf99	-0.07751388
108	0xbd18ee99	-0.03733692
109	0xbdebbcc5	-0.11510614
110	0xbd192c25	-0.037395615
111	0xbdbdfdde	-0.09276937
112	0x3d05d354	0.03267224
113	0xbcc5e1c0	-0.024155498
114	0xbe1859e2	-0.14878038
115	0xbdf7f75a	-0.121077254
116	0xbdfc86ab	-0.123303734
117	0xbd85d5c4	-0.06534913
118	0x3b0c162d	0.0021375522
119	0xbe0127d3	-0.12612848
120	0xbd886eda	-0.06661768
121	0x3db0d710	0.0863477
122	0xbbfa5480	-0.0076394677
123	0xbd2aaffe	-0.041671745
124	0x3ca0204d	0.019546652
125	0xbbdd4a65	-0.0067532533
126	0x3db6a34a	0.08917864
127	0xbd8cffdc	-0.06884739
128	0x3b4a36a7	0.003085533
129	0x3dcac1d9	0.09900255
130	0xbe0d9124	-0.13824898
131	0xbda48d6d	-0.08034787
132	0xbdbfbaba	-0.09361787
133	0x3d78dff3	0.06076045
134	0x3d879492	0.066201344
135	0xbdf0d726	-0.11759786
136	0xbcb21f94	-0.021743573
137	0xbddb3f22	-0.10705401
138	0xbdfb68a5	-0.12275819
139	0x3d948325	0.07251576
140	0x3b8fdfb2	0.00439068
141	0x3d92b798	0.07163924
142	0xbd509ac3	-0.050928842
143	0xbbd034c2	-0.0063539455
144	0x3d2f2a2c	0.042764828
145	0x3dae5caf	0.08513772
146	0x3cb5ee3c	0.022208326
147	0x3d53b445	0.05168559
148	0xbd5ea0b7	-0.05435249
149	0xbdc4da30	-0.096119285
150	0x3d621540	0.055196047
151	0x3cc5465a	0.024081398
152	0x3df51306	0.11966519
153	0x3daf64a4	0.085641176
154	0xbd053800	-0.03252411
155	0xbd9d4a65	-0.07680205
156	0x3ca89c02	0.020582203
157	0xbd18f047	-0.03733852
158	0xbd976f91	-0.073943265
159	0xbdc6b4f2	-0.09702481
160	0xbd9ceef7	-0.076627664
161	0xbe00bd94	-0.12572318
162	0x3d5e2f51	0.054244343
163	0x3aa6150d	0.0012671069
164	0xbcff0c24	-0.031133719
165	0x3db86fac	0.09005675
166	0xbd9632e4	-0.07333925
167	0x3bbfb6c0	0.005850643
168	0x3d9eb21b	0.07748815
169	0xbe16f01e	-0.14740035
170	0x3d892e8c	0.06698331
171	0xbcc0cf44	-0.023536332
172	0xbd344d27	-0.04401889
173	0xbe011ec1	-0.12609388
174	0xbbdabaf8	-0.0066751204
175	0xbe2e70e1	-0.17035247
176	0xbdc5f6a1	-0.09666181
177	0xbcf20201	-0.029541971
178	0xbdf3e383	-0.11908629
179	0xbd3a9d30	-0.045560062
180	0xbddf8a63	-0.10915067
181	0xbd928d81	-0.07155896
182	0xbca8dfc0	-0.020614505
183	0xbd90cb1a	-0.070699885
184	0xbde7f69a	-0.113263324
185	0x3d9999c6	0.07500033
186	0xbc36ff6c	-0.011169296
187	0xbe1a7ad0	-0.15085912
188	0xbe105317	-0.14094196
189	0xbd05bb02	-0.032649048
190	0x3dae93ae	0.085242614
191	0x3b8db420	0.004324451
192	0x3df755f8	0.12076944
193	0x3d8e247c	0.069405526
194	0x3d5d37ae	0.05400818
195	0x3e4719f0	0.19443488
196	0x3f242126	0.6411308
197	0x3efaf3ff	0.4901428
198	0x3db9e946	0.090776965
199	0x3d33dc7b	0.04391144
200	0xbd112a39	-0.035440657
201	0xbc381d34	-0.011237431
202	0xbd2a6557	-0.04160055
203	0x3e582c1d	0.21110578
204	0x3d92ee0d	0.07174311
205	0x3d6ea77c	0.058265194
206	0xbb208904	-0.002449573
207	0x3eb7ce84	0.35899746
208	0x3e2658d7	0.16244827
209	0x3eb76039	0.358156
210	0x3e116728	0.14199507
211	0x3e26a98e	0.16275617
212	0x3e69c136	0.2282761
213	0x3d01da7b	0.0317025
214	0x3ee3a1b6	0.44459313
215	0x3e400209	0.18750776
216	0xbd54e514	-0.05197628
217	0xbd19ed31	-0.03757972
218	0x3d475f78	0.04867503
219	0x3cdf0b95	0.027227202
220	0x3d254c84	0.040356174
221	0x3eb59d22	0.35471445
222	0xbcc186f0	-0.023623914
223	0x3c5128f6	0.0127661135
224	0x3e876569	0.26444557
225	0x3e1fa5da	0.15590611
226	0x3d09f097	0.03367671
227	0xbdc59e20	-0.096493006
228	0x3ea22076	0.3166539
229	0x3ee9c8d9	0.45661047
230	0xbd74da0b	-0.059778254
231	0xbd9a2d9c	-0.075282305
232	0x3e642836	0.22280964
233	0x3e96ddd3	0.29466113
234	0xbe77aa35	-0.24186023
235	0x3e243f78	0.16039836
236	0xbe0b7550	-0.1361897
237	0x3d9c14fa	0.076211885
238	0x3d617ef6	0.05505272
239	0xbe993818	-0.2992561
240	0xbd1fa593	-0.038976263
241	0x3c876cb1	0.01653132
242	0x3e82433a	0.25441915
243	0x3d7f97c4	0.062400594
244	0x3dab2dde	0.08358358
245	0x3f615e59	0.8803459
246	0x3ebff18b	0.3748897
247	0x3d5fc218	0.05462846
248	0x3d5e50ff	0.054276463
249	0x3eafca32	0.3433395
250	0x3dc59893	0.09648242
251	0xbe266c6d	-0.16252299
252	0x3e4ade5f	0.1981139
253	0x3dd6f74b	0.10496386
254	0x3dfc373e	0.12315224
255	0xbdefdac2	-0.117116466

fc2.bias f4 [64]
0	0xbe4c5195	-0.19952996
1	0xbdb16216	-0.086612865
2	0xbe1622ec	-0.14661759
3	0x3c704e8a	0.014667163
4	0xbd09a319	-0.033602808
5	0x3dd18a41	0.10231448
6	0xbd00c3ad	-0.03143661
7	0x3d7dc6c0	0.06195712
8	0xbe15d633	-0.14632492
9	0x3e80efe9	0.25183037
10	0x3e274138	0.16333473
11	0xbd8818d0	-0.066453576
12	0xbd2a8969	-0.04163495
13	0x3e5d249c	0.21595997
14	0xbddc08b6	-0.10743849
15	0xbd422d30	-0.047406375
16	0x3e7802a7	0.24219762
17	0xbd94c436	-0.07263987
18	0x3e86d4d8	0.26334262
19	0x3e136b61	0.1439643
20	0x3dfa3fd3	0.12219205
21	0xbe0b0d17	-0.13579212
22	0xbe00b53e	-0.12569138
23	0xbe8799fd	-0.2648467
24	0xbe2ec44f	-0.17067073
25	0xbcd8e3ef	-0.026475875
26	0xbe13a94a	-0.14420047
27	0x3d20d79b	0.039268117
28	0x3ecd955d	0.40153018
29	0x3e15a9c3	0.1461554
30	0x3e7ea5a5	0.24867876
31	0xbe396c61	-0.1810775
32	0xbdc1f59e	-0.09470676
33	0x3ec03664	0.37541497
34	0x3cf8019b	0.030274203
35	0x3f05a797	0.52208847
36	0xbd2a5f47	-0.04159477
37	0xbe10a0b9	-0.14123811
38	0x3e3250d2	0.17413643
39	0xbe1ce81c	-0.15322918
40	0xbb2cc64b	-0.002636331
41	0x3e48f863	0.19626002
42	0xbccdb4f7	-0.025110705
43	0xbe28057d	-0.16408344
44	0xbdb9acdf	-0.09066176
45	0xbd9b7a3a	-0.07591672
46	0xbdb81df0	-0.08990085
47	0x3d76b432	0.06023044
48	0xbdae6ad3	-0.08516469
49	0x3dd5012b	0.104006134
50	0x3d9ba9a1	0.076007135
51	0xbe30bfd4	-0.17260677
52	0xbe419572	-0.18904665
53	0xbda61c6a	-0.08110888
54	0x3db001c7	0.08594089
55	0x3d9e4338	0.07727665
56	0xbe1f830a	-0.15577331
57	0x3e014bfa	0.12626639
58	0x3e5d64d1	0.2162049
59	0xbd12d3bd	-0.03584646
60	0xbe694731	-0.22781064
61	0xbd863e2c	-0.06554827
62	0xbde7125c	-0.11282799
63	0xbdf44bac	-0.11928496

output.weight f4 [4, 64]
0	0x3d83b76b	0.064314686
1	0xbd4cbdfc	-0.04998587
2	0x3d4c6883	0.049904358
3	0xbdf1a711	-0.117994435
4	0x3db7ebfc	0.08980557
5	0xbdf9287c	-0.12165925
6	0xbd8e44a0	-0.06946683
7	0x3dbdcc2f	0.092674606
8	0x3d80b4ea	0.062845066
9	0x3eee2faf	0.46520755
10	0xbdc07776	-0.09397785
11	0xbbe12e92	-0.0068720067
12	0x3c4b88c1	0.012422741
13	0x3ea4b1a6	0.32166785
14	0xbd0b9ee3	-0.034087073
15	0xbaa0558e	-0.0012232529
16	0xbea43dd0	-0.3207841
17	0x3ca57e22	0.020201746
18	0x3e3e3527	0.18574964
19	0x3c87edec	0.016592942
20	0x3e447eb3	0.19188957
21	0xbdab9386	-0.08377747
22	0x3dc142b1	0.094365485
23	0x3d28ae11	0.041181628
24	0xbd5beb5c	-0.053691253
25	0x3d8688ad	0.065690376
26	0xbde26702	-0.110548034
27	0xbcb97f0a	-0.022643585
28	0x3ebb70d8	0.3660953
29	0x3d89f688	0.06736475
30	0x3db27b0b	0.08714875
31	0xbcf31554	-0.029673256
32	0x3e10ffb1	0.14160039
33	0x3ea1535a	0.31508905
34	0xbc435f32	-0.011924552
35	0x3d809131	0.06277693
36	0xbd8b8345	-0.06812147
37	0x3d309604	0.043111816
38	0xbe1332e5	-0.14374883
39	0xbdb05ab7	-0.086110525
40	0xbbafad2c	-0.00536122
41	0x3dbae12a	0.09124978
42	0x3bb0c910	0.0053950623
43	0xbc7baec7	-0.015361494
44	0xbbbfd31c	-0.0058540236
45	0x3dbab3df	0.09116339
46	0xbe00b0cd	-0.12567444
47	0xbd9084be	-0.070565686
48	0xbc28d234	-0.010304023
49	0xbdd5298f	-0.10408317
50	0xbdd1778d	-0.102278806
51	0x3ddb0ca5	0.10695771
52	0xbd54e14a	-0.051972665
53	0xbe7fdae7	-0.24985848
54	0x3e00e046	0.12585554
55	0x3e05ac4a	0.13054004
56	0x3c1ea0bf	0.00968188
57	0xbcc95142	-0.02457488
58	0x3db510c3	0.08841088
59	0x3c6a5143	0.014301601
60	0xbdd9c4af	-0.106332175
61	0x3dd6e8a0	0.104935884
62	0x3d812592	0.06305994
63	0xbd6fab98	-0.058513254
64	0xbec38464	-0.38186944
65	0x3cd893e8	0.026437715
66	0x3ca95803	0.02067185
67	0x3da22f70	0.07919204
68	0xbcc4da81	-0.024029972
69	0x3d8b0b28	0.06789237
70	0xbeb58e06	-0.35459918
71	0x3d137e24	0.03600897
72	0x3cab2447	0.020891322
73	0x3aa6d786	0.0012729026
74	0x3ddac696	0.106824085
75	0x3def169d	0.11674235
76	0xbdf36d64	-0.11886099
77	0x3cf6ed70	0.030142516
78	0xbe95eb6d	-0.29281178
79	0x3dc3d547	0.09562164
80	0xbbbc65e1	-0.0057494496
81	0xbde89489	-0.11356456
82	0x3eb2eb41	0.3494511
83	0xbd95785e	-0.07298349
84	0x3bfec1a3	0.007774548
85	0x3e195e61	0.14977409
86	0xbe87e05d	-0.26538363
87	0x3e57d879	0.21078672
88	0x3bba37ad	0.0056829066
89	0x3c9c6ea2	0.019095723
90	0xbdeb43aa	-0.11487515
91	0xbd342683	-0.04398204
92	0xbbd46e99	-0.006482911
93	0x3d569da8	0.052396446
94	0x3cb26926	0.021778654
95	0x3e11ec75	0.14250357
96	0x3b883986	0.004157248
97	0xbc40e704	-0.011773828
98	0xbe1341fb	-0.14380638
99	0x3ed47600	0.41496277
100	0xbcfd9ac4	-0.030957587
101	0xbdcd16a4	-0.10014084
102	0x3d51e455	0.051243145
103	0xbe9fe6e7	-0.31230852
104	0xbcbd3b0b	-0.023099443
105	0x3dacf265	0.084446706
106	0xbaf30400	-0.0018540621
107	0xbc2be94e	-0.010492636
108	0x3ca3f960	0.020016372
109	0xbdc67864	-0.096909314
110	0x3cbe61c4	0.023239978
111	0xbc40a59f	-0.011758237
112	0x3da382e1	0.079839475
113	0x3db40e9f	0.08791851
114	0xbe0910c2	-0.13385299
115	0xbde1b311	-0.11020482
116	0xbbc6f701	-0.0060719256
117	0x3e0de3c2	0.13856414
118	0xbd315bb0	-0.04330033
119	0x3e80c1c4	0.2514783
120	0xbec080bd	-0.3759822
121	0x3c5dd302	0.013539078
122	0x3dfd18f1	0.12358273
123	0xbca5e673	-0.020251488
124	0xbdf9c185	-0.12195114
125	0x3dc8e527	0.09809332
126	0xbda52ed5	-0.08065573
127	0x3db4a640	0.08820772
128	0x3cf548ad	0.029941881
129	0x3c8d0654	0.017214932
130	0x3dbf1853	0.09330811
131	0xbe319e0b	-0.17345445
132	0xbda35839	-0.079758115
133	0x3e608bf7	0.21928392
134	0x3ddc2a1d	0.1075022
135	0xbdef9852	-0.11698975
136	0x3c65e490	0.014031544
137	0xbe8167a1	-0.25274375
138	0xbe934153	-0.28760776
139	0x3ccdc28d	0.025117183
140	0x3ddacfce	0.10684167
141	0x3cd4c80c	0.025974296
142	0x3ce6fac8	0.028195754
143	0xbda6dfac	-0.08148131
144	0x3ed41ec1	0.41429713
145	0x3d896728	0.067091286
146	0x3e2bdb80	0.16782951
147	0x3cba727c	0.022759669
148	0xbda442ca	-0.080205515
149	0xba25d600	-0.0006326139
150	0xbd6a8a83	-0.057261
151	0x3e1c64c3	0.15272813
152	0x3d693fa3	0.056945454
153	0xbd5ed2a0	-0.054400086
154	0xbda07a6d	-0.07835851
155	0x3ccdf516	0.02514128
156	0x3ec89c08	0.39181542
157	0x3e3a774d	0.18209572
158	0x3e6dbe0b	0.23217027
159	0x3d65e0d2	0.05612261
160	0xbe2ddcb6	-0.16978726
161	0x3eaab626	0.33342093
162	0xbd954d00	-0.07290077
163	0x3dd5a376	0.10431568
164	0x3cc0d4d6	0.023538988
165	0x3d88bde2	0.06676842
166	0x3e12ec35	0.14347918
167	0x3cccc91e	0.024998244
168	0x3ab7380d	0.0013978496
169	0x3e90027f	0.28126904
170	0x3d93408b	0.07190045
171	0xbd449c96	-0.048000894
172	0xbd3d5e3c	-0.046232447
173	0x3ca2728e	0.019830015
174	0x3dbc0492	0.09180559
175	0x3db2ed81	0.087367065
176	0x3d0c5c6f	0.03426784
177	0x3e1e6afb	0.15470497
178	0x3cf54d52	0.029944096
179	0x3cb4d130	0.022072405
180	0xbda442a8	-0.08020526
181	0xbd135f6c	-0.035979673
182	0xbdd486ba	-0.103772596
183	0xbd4e54aa	-0.05037371
184	0x3d1977f5	0.037467916
185	0x3ce35056	0.027748268
186	0x3e0fdc20	0.14048815
187	0xbd748a9f	-0.059702512
188	0xbe06ebb1	-0.13175847
189	0xbce6d67f	-0.028178452
190	0x3d274243	0.040834676
191	0xbd649510	-0.05580622
192	0x3eee92c4	0.46596348
193	0xbd2736b1	-0.040823642
194	0xbd53b9a3	-0.05169071
195	0xbe3cef75	-0.1845072
196	0xbeb13990	-0.3461423
197	0x3d14653b	0.036229353
198	0xbd6ee085	-0.058319587
199	0x3d8ccfc7	0.06875568
200	0x3d1425fc	0.036169037
201	0x3d2a8cf2	0.041638322
202	0x3da5e0f4	0.08099547
203	0x3cd8e881	0.026478054
204	0x3bb580e0	0.0055390447
205	0x3d3527e7	0.044227507
206	0x3d44f487	0.048084762
207	0x3ca9fb40	0.020749688
208	0xbc2eddd1	-0.010673002
209	0x3d41f614	0.04735382
210	0x3d716cab	0.058941524
211	0xbd8f0805	-0.069839515
212	0x3d783e49	0.060606275
213	0xbdf23ca8	-0.118279755
214	0x3d8da646	0.0691648
215	0xbe597810	-0.21237206
216	0xbce69f66	-0.028152179
217	0xbc576941	-0.013147653
218	0x3c944cf4	0.0181031
219	0x3e4acc9c	0.19804615
220	0xbc9bd094	-0.019020356
221	0xbc5aa74d	-0.013345552
222	0x3e2daf6c	0.1696145
223	0xbe7bafec	-0.24578828
224	0xbd67b7d6	-0.056571804
225	0x3d474c19	0.048656557
226	0x3e22ef20	0.15911531
227	0x3ebadf72	0.364986
228	0x3dc658a7	0.09684878
229	0xbcb4a943	-0.022053367
230	0x3e3c868c	0.184107
231	0x3d39a09b	0.04531918
232	0x3d359669	0.044332895
233	0xbdacca89	-0.08437068
234	0xbdbf66c8	-0.09345776
235	0x3dc3d1f1	0.095615275
236	0x3e007558	0.12544763
237	0x3d62b332	0.055346675
238	0xbb93fde1	-0.0045163487
239	0x3d84aeee	0.06478678
240	0x3cd6f510	0.026239902
241	0x3e1039c7	0.1408454
242	0xbe2b9e9e	-0.16759726
243	0x3ddc2157	0.107485466
244	0xbe1eb841	-0.15499975
245	0xbe16e7af	-0.14736818
246	0x3e4828ff	0.19546889
247	0xbd36e37e	-0.044650547
248	0x3e5254d0	0.20540166
249	0x3e0a45ae	0.13503143
250	0xbd9856ad	-0.07438407
251	0xbd4e112e	-0.050309353
252	0xbdf41c15	-0.11919419
253	0xbef5c2ab	-0.48000082
254	0xbd3c2d9c	-0.045941934
255	0xbd5a5658	-0.053305

output.bias f4 [4]
0	0x3cf83dc0	0.030302882
1	0x3e280d9a	0.16411439
2	0x3d07023f	0.032961126
3	0x3e989d78	0.2980764
